// -----// IR Dump After CSE (cse) //----- //
util.func public @SingleConv$async(%arg0: !hal.buffer_view, %arg1: !hal.fence, %arg2: !hal.fence) -> !hal.buffer_view attributes {inlining_policy = #util.inline.never, iree.abi.model = "coarse-fences", iree.abi.stub} {
  %cst = arith.constant dense<"…"> : tensor<8x3x3x3xf32>
  %0 = hal.tensor.import wait(%arg1) => %arg0 : !hal.buffer_view -> tensor<1x3x500x500xf32>
  %1 = flow.tensor.reshape %0 : tensor<1x3x500x500xf32> -> tensor<3x500x500xf32>
  %2 = flow.dispatch.workgroups(%1, %cst) : (tensor<3x500x500xf32>, tensor<8x3x3x3xf32>) -> tensor<8x498x498xf32> =
      (%arg3: !iree_tensor_ext.dispatch.tensor<readonly:tensor<3x500x500xf32>>, %arg4: !iree_tensor_ext.dispatch.tensor<readonly:tensor<8x3x3x3xf32>>, %arg5: !iree_tensor_ext.dispatch.tensor<writeonly:tensor<8x498x498xf32>>) {
    %cst_0 = arith.constant 0.000000e+00 : f32
    %cst_1 = arith.constant dense<[0.540064871, 1.66891348, -0.204370424, 0.173146293, -0.0351918153, -0.198536336, 0.0749602392, 0.360360771]> : tensor<8xf32>
    %6 = iree_tensor_ext.dispatch.tensor.load %arg3, offsets = [0, 0, 0], sizes = [3, 500, 500], strides = [1, 1, 1] : !iree_tensor_ext.dispatch.tensor<readonly:tensor<3x500x500xf32>> -> tensor<3x500x500xf32>
    %7 = iree_tensor_ext.dispatch.tensor.load %arg4, offsets = [0, 0, 0, 0], sizes = [8, 3, 3, 3], strides = [1, 1, 1, 1] : !iree_tensor_ext.dispatch.tensor<readonly:tensor<8x3x3x3xf32>> -> tensor<8x3x3x3xf32>
    %8 = tensor.empty() : tensor<8x498x498xf32>
    %9 = linalg.fill ins(%cst_0 : f32) outs(%8 : tensor<8x498x498xf32>) -> tensor<8x498x498xf32>
    %10 = linalg.generic {indexing_maps = [affine_map<(d0, d1, d2, d3, d4, d5) -> (d3, d1 + d4, d2 + d5)>, affine_map<(d0, d1, d2, d3, d4, d5) -> (d0, d3, d4, d5)>, affine_map<(d0, d1, d2, d3, d4, d5) -> (d0, d1, d2)>], iterator_types = ["parallel", "parallel", "parallel", "reduction", "reduction", "reduction"]} ins(%6, %7 : tensor<3x500x500xf32>, tensor<8x3x3x3xf32>) outs(%9 : tensor<8x498x498xf32>) {
    ^bb0(%in: f32, %in_2: f32, %out: f32):
      %12 = arith.mulf %in, %in_2 : f32
      %13 = arith.addf %out, %12 : f32
      linalg.yield %13 : f32
    } -> tensor<8x498x498xf32>
    %11 = linalg.generic {indexing_maps = [affine_map<(d0, d1, d2) -> (d0, d1, d2)>, affine_map<(d0, d1, d2) -> (d0)>, affine_map<(d0, d1, d2) -> (d0, d1, d2)>], iterator_types = ["parallel", "parallel", "parallel"]} ins(%10, %cst_1 : tensor<8x498x498xf32>, tensor<8xf32>) outs(%8 : tensor<8x498x498xf32>) {
    ^bb0(%in: f32, %in_2: f32, %out: f32):
      %12 = arith.addf %in, %in_2 : f32
      linalg.yield %12 : f32
    } -> tensor<8x498x498xf32>
    iree_tensor_ext.dispatch.tensor.store %11, %arg5, offsets = [0, 0, 0], sizes = [8, 498, 498], strides = [1, 1, 1] : tensor<8x498x498xf32> -> !iree_tensor_ext.dispatch.tensor<writeonly:tensor<8x498x498xf32>>
    flow.return
  } count() -> (index, index, index) {
    %x, %y, %z = iree_tensor_ext.dispatch.workgroup_count_from_slice()
    flow.return %x, %y, %z : index, index, index
  }
  %3 = flow.tensor.reshape %2 : tensor<8x498x498xf32> -> tensor<1x8x498x498xf32>
  %4 = hal.tensor.barrier join(%3 : tensor<1x8x498x498xf32>) => %arg2 : !hal.fence
  %5 = hal.tensor.export %4 : tensor<1x8x498x498xf32> -> !hal.buffer_view
  util.return %5 : !hal.buffer_view
}

