// -----// IR Dump After DumpModulePass (iree-util-dump-module) //----- //
#composite_of_896b = #util.composite<896xi8, [
    dense<"…"> : tensor<8x3x3x3xf32>,
    dense<0> : vector<32xi8>,
]>
#executable_target_embedded_elf_x86_64 = #hal.executable.target<"llvm-cpu", "embedded-elf-x86_64", {cpu = "alderlake", cpu_features = "+prfchw,-cldemote,+avx,+aes,+sahf,+pclmul,-xop,+crc32,-amx-fp8,+xsaves,-avx512fp16,-usermsr,-sm4,-egpr,+sse4.1,-avx10.1,-avx512ifma,+xsave,+sse4.2,-tsxldtrk,-sm3,-ptwrite,-widekl,-movrs,+invpcid,+64bit,+xsavec,-avx512vpopcntdq,+cmov,-avx512vp2intersect,-avx512cd,+movbe,-avxvnniint8,-ccmp,-amx-int8,-kl,-sha512,+avxvnni,-rtm,+adx,+avx2,-hreset,+movdiri,+serialize,+vpclmulqdq,-avx512vl,-uintr,-cf,+clflushopt,-raoint,-cmpccxadd,+bmi,-amx-tile,+sse,+gfni,-avxvnniint16,-amx-fp16,-zu,-ndd,+xsaveopt,+rdrnd,-avx512f,-amx-bf16,-avx512bf16,-avx512vnni,-push2pop2,+cx8,-avx512bw,+sse3,-pku,-nf,-amx-tf32,-amx-avx512,+fsgsbase,-clzero,-mwaitx,-lwp,+lzcnt,+sha,+movdir64b,-ppx,-wbnoinvd,-enqcmd,-avxneconvert,-tbm,-pconfig,-amx-complex,+ssse3,+cx16,-avx10.2,+bmi2,+fma,+popcnt,-avxifma,+f16c,-avx512bitalg,-rdpru,+clwb,+mmx,+sse2,+rdseed,-avx512vbmi2,-prefetchi,-amx-movrs,+rdpid,-fma4,-avx512vbmi,+shstk,+vaes,+waitpkg,-sgx,+fxsr,-avx512dq,-sse4a", data_layout = "e-m:e-p270:32:32-p271:32:32-p272:64:64-i64:64-i128:128-f80:128-n8:16:32:64-S128", iree.encoding.resolver = #iree_cpu.cpu_encoding_resolver<>, max_stack_allocation_size = 32768 : i64, native_vector_size = 32 : i64, target_triple = "x86_64-unknown-unknown-eabi-elf"}>
#map = affine_map<(d0, d1, d2, d3, d4, d5) -> (d3, d1 + d4, d2 + d5)>
#map1 = affine_map<(d0, d1, d2, d3, d4, d5) -> (d0, d3, d4, d5)>
#map2 = affine_map<(d0, d1, d2, d3, d4, d5) -> (d0, d1, d2)>
#map3 = affine_map<(d0, d1, d2) -> (d0, d1, d2)>
#map4 = affine_map<(d0, d1, d2) -> (d0)>
#device_target_local = #hal.device.target<"local", [#executable_target_embedded_elf_x86_64]> : !hal.device
module attributes {stream.affinity.default = #hal.device.affinity<@__device_0>} {
  util.global private @__device_0 = #device_target_local
  util.global private @__constant_tensor_8x3x3x3xf32 : !stream.resource<constant>
  util.initializer {
    %c0 = arith.constant 0 : index
    %c0_i64 = arith.constant 0 : i64
    %c896 = arith.constant 896 : index
    %0 = stream.timepoint.immediate => !stream.timepoint
    %buffer_cst = util.buffer.constant {alignment = 64 : index} : !util.buffer = #composite_of_896b
    %did_map, %result = stream.resource.try_map on(#hal.device.affinity<@__device_0>) %buffer_cst[%c0] : !util.buffer -> i1, !stream.resource<constant>{%c896}
    cf.cond_br %did_map, ^bb2(%0, %result : !stream.timepoint, !stream.resource<constant>), ^bb1
  ^bb1:  // pred: ^bb0
    %1 = stream.resource.alloc uninitialized on(#hal.device.affinity<@__device_0>) : !stream.resource<constant>{%c896}
    %file = stream.file.constant on(#hal.device.affinity<@__device_0>) %buffer_cst[%c0 for %c896] : !util.buffer{%c896} -> !stream.file
    %2 = stream.file.read on(#hal.device.affinity<@__device_0>) await(%0) => %file[%c0_i64], %1[%c0], %c896 : !stream.file -> !stream.resource<constant>{%c896} => !stream.timepoint
    cf.br ^bb2(%2, %1 : !stream.timepoint, !stream.resource<constant>)
  ^bb2(%3: !stream.timepoint, %4: !stream.resource<constant>):  // 2 preds: ^bb0, ^bb1
    %5 = stream.timepoint.await sync %3 => %4 : !stream.resource<constant>{%c896}
    util.global.store %5, @__constant_tensor_8x3x3x3xf32 : !stream.resource<constant>
    util.return
  }
  stream.executable private @SingleConv$async_dispatch_0 {
    stream.executable.export public @SingleConv$async_dispatch_0_conv_8x498x498x3x3x3_f32 workgroups() -> (index, index, index) {
      %x, %y, %z = iree_tensor_ext.dispatch.workgroup_count_from_slice()
      stream.return %x, %y, %z : index, index, index
    }
    builtin.module {
      func.func @SingleConv$async_dispatch_0_conv_8x498x498x3x3x3_f32(%arg0: !stream.binding {stream.alignment = 64 : index}, %arg1: !stream.binding {stream.alignment = 64 : index}, %arg2: !stream.binding {stream.alignment = 64 : index}) {
        %cst = arith.constant 0.000000e+00 : f32
        %cst_0 = arith.constant dense<[0.540064871, 1.66891348, -0.204370424, 0.173146293, -0.0351918153, -0.198536336, 0.0749602392, 0.360360771]> : tensor<8xf32>
        %c0 = arith.constant 0 : index
        %0 = stream.binding.subspan %arg0[%c0] : !stream.binding -> !iree_tensor_ext.dispatch.tensor<readonly:tensor<3x500x500xf32>>
        %1 = stream.binding.subspan %arg1[%c0] : !stream.binding -> !iree_tensor_ext.dispatch.tensor<readonly:tensor<8x3x3x3xf32>>
        %2 = stream.binding.subspan %arg2[%c0] : !stream.binding -> !iree_tensor_ext.dispatch.tensor<writeonly:tensor<8x498x498xf32>>
        %3 = iree_tensor_ext.dispatch.tensor.load %0, offsets = [0, 0, 0], sizes = [3, 500, 500], strides = [1, 1, 1] : !iree_tensor_ext.dispatch.tensor<readonly:tensor<3x500x500xf32>> -> tensor<3x500x500xf32>
        %4 = iree_tensor_ext.dispatch.tensor.load %1, offsets = [0, 0, 0, 0], sizes = [8, 3, 3, 3], strides = [1, 1, 1, 1] : !iree_tensor_ext.dispatch.tensor<readonly:tensor<8x3x3x3xf32>> -> tensor<8x3x3x3xf32>
        %5 = tensor.empty() : tensor<8x498x498xf32>
        %6 = linalg.fill ins(%cst : f32) outs(%5 : tensor<8x498x498xf32>) -> tensor<8x498x498xf32>
        %7 = linalg.generic {indexing_maps = [#map, #map1, #map2], iterator_types = ["parallel", "parallel", "parallel", "reduction", "reduction", "reduction"]} ins(%3, %4 : tensor<3x500x500xf32>, tensor<8x3x3x3xf32>) outs(%6 : tensor<8x498x498xf32>) {
        ^bb0(%in: f32, %in_1: f32, %out: f32):
          %9 = arith.mulf %in, %in_1 : f32
          %10 = arith.addf %out, %9 : f32
          linalg.yield %10 : f32
        } -> tensor<8x498x498xf32>
        %8 = linalg.generic {indexing_maps = [#map3, #map4, #map3], iterator_types = ["parallel", "parallel", "parallel"]} ins(%7, %cst_0 : tensor<8x498x498xf32>, tensor<8xf32>) outs(%5 : tensor<8x498x498xf32>) {
        ^bb0(%in: f32, %in_1: f32, %out: f32):
          %9 = arith.addf %in, %in_1 : f32
          linalg.yield %9 : f32
        } -> tensor<8x498x498xf32>
        iree_tensor_ext.dispatch.tensor.store %8, %2, offsets = [0, 0, 0], sizes = [8, 498, 498], strides = [1, 1, 1] : tensor<8x498x498xf32> -> !iree_tensor_ext.dispatch.tensor<writeonly:tensor<8x498x498xf32>>
        return
      }
    }
  }
  util.func public @SingleConv$async(%arg0: !hal.buffer_view, %arg1: !hal.fence, %arg2: !hal.fence) -> !hal.buffer_view attributes {inlining_policy = #util.inline.never, iree.abi.model = "coarse-fences", iree.abi.stub} {
    %c0 = arith.constant 0 : index
    %c7936128 = arith.constant 7936128 : index
    %c3000000 = arith.constant 3000000 : index
    %c500 = arith.constant 500 : index
    %c3 = arith.constant 3 : index
    %c1 = arith.constant 1 : index
    %c896 = arith.constant 896 : index
    %__constant_tensor_8x3x3x3xf32 = util.global.load immutable @__constant_tensor_8x3x3x3xf32 : !stream.resource<constant>
    %element_type_f32 = hal.element_type<f32> : i32
    %dense_row_major = hal.encoding_type<dense_row_major> : i32
    hal.buffer_view.assert<%arg0 : !hal.buffer_view> message("tensor") shape([%c1, %c3, %c500, %c500]) type(%element_type_f32) encoding(%dense_row_major)
    %0 = stream.tensor.import on(#hal.device.affinity<@__device_0>) %arg0 : !hal.buffer_view -> tensor<1x3x500x500xf32> in !stream.resource<external>{%c3000000}
    %1 = stream.timepoint.import on(#hal.device.affinity<@__device_0>) %arg1 : (!hal.fence) => !stream.timepoint
    %result, %result_timepoint = stream.resource.alloca uninitialized on(#hal.device.affinity<@__device_0>) await(%1) => !stream.resource<external>{%c7936128} => !stream.timepoint
    %2 = stream.cmd.execute on(#hal.device.affinity<@__device_0>) await(%result_timepoint) => with(%0 as %arg3: !stream.resource<external>{%c3000000}, %__constant_tensor_8x3x3x3xf32 as %arg4: !stream.resource<constant>{%c896}, %result as %arg5: !stream.resource<external>{%c7936128}) {
      stream.cmd.dispatch @SingleConv$async_dispatch_0::@SingleConv$async_dispatch_0_conv_8x498x498x3x3x3_f32 {
        ro %arg3[%c0 for %c3000000] : !stream.resource<external>{%c3000000},
        ro %arg4[%c0 for %c896] : !stream.resource<constant>{%c896},
        wo %arg5[%c0 for %c7936128] : !stream.resource<external>{%c7936128}
      }
    } => !stream.timepoint
    stream.timepoint.chain_external on(#hal.device.affinity<@__device_0>) %2 => (%arg2 : !hal.fence)
    %3 = stream.tensor.export on(#hal.device.affinity<@__device_0>) %result : tensor<1x8x498x498xf32> in !stream.resource<external>{%c7936128} -> !hal.buffer_view
    util.return %3 : !hal.buffer_view
  }
  util.func public @SingleConv(%arg0: !hal.buffer_view) -> !hal.buffer_view attributes {iree.abi.stub} {
    %0 = util.null : !hal.fence
    %c-1_i32 = arith.constant -1 : i32
    %c0 = arith.constant 0 : index
    %device_0 = hal.devices.get %c0 : !hal.device
    %fence = hal.fence.create device(%device_0 : !hal.device) flags("None") : !hal.fence
    %1 = util.call @SingleConv$async(%arg0, %0, %fence) : (!hal.buffer_view, !hal.fence, !hal.fence) -> !hal.buffer_view
    %status = hal.fence.await until([%fence]) timeout_millis(%c-1_i32) flags("None") : i32
    util.return %1 : !hal.buffer_view
  }
}


